hackathon123/model/best_model.pt (torch, 23330 bytes, 19 tensors)

model.0.weight f4 [64, 13]
000000 bc 23 54 3e 02 cf 97 3e d5 37 e0 bd bd 42 8d 3e
       0.20716757 0.29650122 -0.10948149 0.2758998
000010 8f 2e 13 bd 21 8f df 3d 0a 59 76 bd f2 43 bb 3d
       -0.035933074 0.109159715 -0.060143508 0.09143819
000020 ee 37 6a 3e e8 3f 64 be 0d 33 70 3e c2 40 c5 bb
       0.22872898 -0.22290003 0.23456974 -0.0060196826
000030 b7 1c 29 3e 24 a6 81 3d 5b 63 0f 3e e4 fe 97 bd
       0.1651486 0.06330517 0.14002745 -0.074216634
000040 cd 84 32 3e 86 ec 97 3c 9a 98 28 be 9d f6 a4 3c
       0.17433472 0.0185454 -0.16464463 0.020137126
000050 e2 b9 01 be fd 98 8e bd 30 aa f6 bd dd e6 41 3e
       -0.12668565 -0.06962774 -0.120441794 0.18935724
000060 47 6c 76 be 39 df bd bd 11 93 8e bd 1b b5 28 be
       -0.24064742 -0.09271092 -0.069616444 -0.16475336
000070 8d 92 cf bb 0d 9e 65 be 9a fa 9f 3e 80 31 7e be
       -0.006334609 -0.22423573 0.3124588 -0.2482357
000080 ca 04 50 3e 8d 9e 28 3d 49 90 a2 bd 14 0f 26 3e
       0.20314327 0.04116683 -0.079376765 0.1621669
000090 2c fd f9 3c d5 49 62 3e 36 5f 56 3d 08 c7 d4 bd
       0.03051623 0.22098477 0.052336894 -0.10389525
0000a0 a4 da 26 3e 85 ce 68 bd 8e 5f bf 3d 18 47 fb 3d
       0.16294342 -0.056837577 0.093443975 0.122694194
0000b0 26 6c 52 3e 82 87 86 bd 31 17 5d 3e d8 02 58 3d
       0.20549068 -0.06568815 0.21590878 0.052737087
0000c0 87 da 61 3e f6 55 ff bd b2 f6 62 be 6d 34 0a be
       0.22056018 -0.124675676 -0.2216442 -0.13496561
0000d0 b4 d7 65 be ec a1 a2 3e a4 1f b2 3d bf 2f d5 3d
       -0.22445565 0.31764162 0.08697441 0.104094975
0000e0 11 50 a5 3d 08 78 74 bc 80 19 21 3e 1c 00 1b be
       0.08071912 -0.014921196 0.15732384 -0.1513676
0000f0 10 6c 92 3c ac aa e3 bd 7d 30 15 3e d5 74 a3 bd
       0.017873794 -0.111165375 0.14569278 -0.07981268
000100 a6 fc 86 3d 86 7a cc 3c 14 a4 62 3e b8 01 ca bd
       0.065911576 0.024960767 0.22132903 -0.09863609
000110 b9 f6 a3 bd a8 a5 38 be f2 05 ad 3e c0 13 51 3e
       -0.08006043 -0.18031943 0.33793598 0.2041769
000120 b4 34 7c 3e d4 05 4f be 64 bd 8d be 21 de 23 be
       0.2462948 -0.20217067 -0.27683556 -0.16002704
000130 ed 63 1f be f7 79 21 3e 4b 7d a8 3d cc 7e 77 3e
       -0.15565462 0.15769182 0.08227023 0.24169463
000140 13 88 0b be 5e 62 2a be 19 83 24 3e 36 ce 59 bd
       -0.13626127 -0.16639087 0.16065635 -0.053175174
000150 e7 d0 43 3e 6c 8f 81 bd d7 69 46 3e 78 48 46 be
       0.19122659 -0.06326184 0.19376312 -0.19363582
000160 43 53 14 be 4c 5c 02 3e 52 c4 2d 3d 25 22 cb bd
       -0.14484887 0.12730521 0.042423554 -0.09918622
000170 0e 85 c4 3d 94 4a 36 3e e9 45 60 be c3 1f 17 be
       0.09595691 0.17801887 -0.21901669 -0.1475821
000180 47 30 81 3e 36 ce b8 bd 43 2c 2b be 63 d0 65 be
       0.25232145 -0.090237066 -0.16716103 -0.22442774
000190 bf 94 5d be 77 f9 3b 3d 7e 1a c5 bc 39 2b 68 be
       -0.21638773 0.045892205 -0.024060484 -0.22672738
0001a0 5f f7 51 3c 9a 64 83 be 5b 59 6c be f8 50 25 be
       0.0128153255 -0.2566269 -0.23080961 -0.16144168
0001b0 2a 76 45 be d3 8f 89 be cf cc 5a 3e 29 2d be 3d
       -0.19283357 -0.26867542 0.21367191 0.09285957
0001c0 6c 07 f2 3c 27 b7 62 be b6 2d 3d be ca 03 a9 bd
       0.029544555 -0.2214018 -0.18474469 -0.08252676
0001d0 4c 2f 92 3d de b7 ec bd 07 9a 33 be a9 e4 f9 bd
       0.071379274 -0.115585074 -0.17539226 -0.122018166
0001e0 c9 d7 0a bc 42 db 52 bd 27 37 b2 bd 8f 6c 70 be
       -0.008474299 -0.05147863 -0.08701926 -0.23478912
0001f0 e4 4e 53 be a5 14 58 be 4f 54 21 be 26 3a 5a be
       -0.20635563 -0.21101625 -0.15754817 -0.21311244
000200 18 b8 32 3e a8 cb 9e 3d 2f 47 7e 3e 3a 0b 15 bd
       0.17453039 0.07753688 0.24831842 -0.03638766
000210 cc a0 7d be b4 d3 28 3e 0b 2e d7 bd a2 e3 27 be
       -0.2476837 0.16487008 -0.10506829 -0.16395429
000220 88 a8 69 be ac 7f 84 be a1 d9 2b 3d a6 d6 91 bd
       -0.22818196 -0.25878656 0.041955594 -0.07121019
000230 e4 4a a2 3c 00 8e 68 be 47 9a 67 3e b6 43 7f be
       0.019811101 -0.22710419 0.22617446 -0.24928173
000240 ce 1c a1 3d 0a c2 2b 3d 5f 26 66 3d 70 01 22 3e
       0.07866822 0.041933097 0.056188937 0.15820861
000250 f5 ef 6d 3e 09 88 20 be c6 c1 0b 3e 06 3d 5f be
       0.23236068 -0.15676893 0.13648137 -0.21800622
000260 3a 24 9c 3d 50 df 1c be 27 29 89 3e 2b d3 7c be
       0.07624097 -0.15319562 0.2678921 -0.24689929
000270 c7 d7 15 3e 88 55 e4 3d ef 6b 47 3d a8 34 00 be
       0.14633094 0.11149126 0.048686918 -0.12520087
000280 6b 59 33 3e 93 ed 11 3e 5d 6c e9 3d b2 9c 68 be
       0.17514579 0.14250784 0.11397622 -0.22716025
000290 11 6e cc 3d 45 42 a7 bb 34 11 08 be 6f 4a 8d 3e
       0.09981931 -0.0051043355 -0.13287812 0.2759585
0002a0 b8 c7 62 3d 1a 9e 12 be c1 94 37 be de be 86 bd
       0.055366248 -0.14318123 -0.17927839 -0.06579374
0002b0 ba f8 31 3e 18 c0 8e bd fd 42 84 be 0f 16 d4 bd
       0.17380038 -0.06970233 -0.25832358 -0.1035577
0002c0 b7 c3 26 be 91 e1 3b 3d 81 a9 3f 3e ea c3 3d be
       -0.16285597 0.045869414 0.18717004 -0.18531767
0002d0 d0 02 79 3d da 36 30 3e fc 48 bd 3c 25 25 d5 3b
       0.060793698 0.17208424 0.02310609 0.006504672
0002e0 18 7a d7 3d 3f d0 20 3e 34 9e 2d 3e 5b eb 11 3c
       0.105213344 0.1570444 0.16954881 0.008906211
0002f0 53 28 86 bd 1e b4 17 3d 16 a4 03 bc 8f 2b 97 bd
       -0.0655066 0.037037008 -0.008034727 -0.07381355
000300 85 37 2c 3e f5 62 8f 3e f3 dc 58 bd 55 8f 24 bd
       0.16818054 0.28005186 -0.05294509 -0.040175755
000310 52 2d 1d bd 05 d3 27 bd 6f 05 d1 3d 7e e7 f7 3d
       -0.0383733 -0.04097273 0.102061145 0.121047005
000320 c8 4d 86 be 19 a9 16 be 66 0e 7d 3e 7f 02 41 3d
       -0.26231217 -0.14712943 0.24712524 0.04712152
000330 04 ec c2 3c a1 56 21 be d8 4b 1c be 48 93 60 be
       0.023794182 -0.15755703 -0.15263307 -0.21931183
000340 27 1d d9 bd fd b7 95 3d bb ed 22 3e 81 b1 28 3e
       -0.106012635 0.073104836 0.15911 0.16473962
000350 8f 56 6c be d4 fa 13 be 8f c1 4c bd c2 90 93 3e
       -0.23079894 -0.14451152 -0.04998928 0.2882138
000360 6c 48 69 3d f6 1f 72 bd 5a 54 9e 3d e6 03 d9 bd
       0.056953833 -0.05911251 0.077309325 -0.10596447
000370 cf 01 46 be a3 b4 30 3e 0c 37 2b be da c3 3a bd
       -0.19336627 0.17256407 -0.16720217 -0.045596935
000380 e2 2b a9 be a2 19 45 3e ba 11 1c 3e dc 4a 5b bd
       -0.33041292 0.1924806 0.15241137 -0.05353819
000390 3b db 26 be 64 4f 92 be b9 aa 49 be d1 a2 5d 3e
       -0.16294567 -0.28576195 -0.19694032 0.21644141
0003a0 6e 7f 23 3e 22 67 6f 3e 09 bc 11 3e eb 46 9c 3d
       0.1596658 0.23379186 0.14231886 0.07630714
0003b0 6e 0f 86 bd 67 5f 4c be 57 c0 31 be cb d0 b1 be
       -0.06545912 -0.19958268 -0.17358528 -0.3472961
0003c0 6b a4 6d 3d 84 53 05 be c7 33 ee bd 0c 55 38 be
       0.05801813 -0.1302014 -0.116309695 -0.18001193
0003d0 7a 50 14 bd 51 af 3e be bb 3e 25 be a8 fe 85 3d
       -0.03620956 -0.18621565 -0.16137211 0.065427125
0003e0 fa 84 59 bd 32 08 1b 3e bf 9f 13 be df 10 61 be
       -0.053105332 0.15139845 -0.14416407 -0.21979092
0003f0 5e 5f 33 bc c6 dd 06 be b9 32 df bd f4 d3 85 be
       -0.01094803 -0.13170537 -0.108983465 -0.2613827

model.0.bias f4 [64]
000000 f3 f9 f3 b9 aa f7 df b4 2f 91 22 b8 b1 ae e0 34
       -0.00046534798 -4.1717186e-07 -3.8759023e-05 4.1850356e-07
000010 a8 9e 36 b7 5c b3 29 b6 47 87 48 b4 9e b0 88 b4
       -1.0884985e-05 -2.5287363e-06 -1.8675665e-07 -2.546048e-07
000020 99 89 08 b4 fe 74 b6 ba 81 07 07 b8 8e 10 2f ba
       -1.2716045e-07 -0.0013920364 -3.2193497e-05 -0.0006678187
000030 d5 e3 99 35 90 21 9e b6 f5 7a df 34 0f 1a e3 b3
       1.1465696e-06 -4.712674e-06 4.162645e-07 -1.0575251e-07
000040 5c 74 fd 33 93 af 45 3a ed c7 52 35 be a0 6e b4
       1.1802396e-07 0.0007541116 7.8522027e-07 -2.2223955e-07
000050 df 5c 74 ba 06 3b 6b 35 dd 44 1d 33 ce c8 09 b6
       -0.00093217 8.763021e-07 3.6617042e-08 -2.0531475e-06
000060 08 0d 21 37 76 fe fa 34 9f aa 79 3a cd 82 8c 3a
       9.599382e-06 4.6751273e-07 0.0009524021 0.0010720134
000070 4e 68 e0 34 e0 79 2f b8 df 52 17 3a 5d 3a 83 b4
       4.1799143e-07 -4.1836756e-05 0.00057725416 -2.4443116e-07
000080 af 31 99 35 af 45 90 39 b6 c5 d5 38 59 7c df 35
       1.1413848e-06 0.0002751774 0.00010193458 1.6650985e-06
000090 8b 5c e0 b4 04 0b 99 b9 73 f4 5f 36 bf 21 9a 3a
       -4.1790585e-07 -0.0002919064 3.3371878e-06 0.0011759325
0000a0 e9 8f 8d b5 18 94 f2 34 48 58 23 b4 0f 5c 1a 35
       -1.0547202e-06 4.5183765e-07 -1.5212674e-07 5.7503433e-07
0000b0 bd f4 7a 35 48 a8 96 35 ed 24 d0 36 9f 63 87 35
       9.34884e-07 1.1224847e-06 6.203182e-06 1.0087277e-06
0000c0 ca c3 54 35 8e 48 14 b5 4d b7 22 34 c2 79 55 36
       7.9261065e-07 -5.523988e-07 1.515411e-07 3.1810346e-06
0000d0 87 4a 67 36 7e de 5c 3a 6e d5 c3 38 ca 35 e4 b4
       3.4465063e-06 0.0008425488 9.338079e-05 -4.2507446e-07
0000e0 b0 5d a5 b9 d6 c2 e1 b4 23 e9 3f 36 04 60 64 32
       -0.00031541055 -4.2051278e-07 2.8596921e-06 1.3293178e-08
0000f0 6c 99 76 b5 e5 6a 01 35 dd 7d 35 38 0b 28 c4 b4
       -9.18654e-07 4.8211797e-07 4.3270982e-05 -3.653698e-07

model.1.weight f4 [64]
000000 c0 11 77 3f ef cc 70 3f 8e 15 77 3f 0e 46 80 3f
       0.9651146 0.94062704 0.96517265 1.0021379
000010 e1 8e 6a 3f a7 42 81 3f e1 cb 6b 3f a2 2c 70 3f
       0.91624266 1.0098466 0.9210797 0.93818104
000020 51 9c 7e 3f 61 6a 83 3f 06 a8 72 3f 9e 27 7c 3f
       0.9945727 1.0266839 0.94787633 0.9849795
000030 8a 16 7d 3f 83 45 8c 3f f4 a9 74 3f 3f a5 7b 3f
       0.98862517 1.0958713 0.9557183 0.9829902
000040 bd 74 80 3f eb dc 7a 3f 9c ed 7e 3f 6b 81 77 3f
       1.0035626 0.97993344 0.99581313 0.9668185
000050 79 f1 81 3f 57 33 81 3f c1 d3 70 3f 8c 31 84 3f
       1.0151817 1.0093793 0.9407311 1.032762
000060 49 10 7a 3f ec 2f 81 3f 89 87 88 3f dd f4 79 3f
       0.976811 1.009275 1.0666362 0.97639257
000070 e7 72 6f 3f 41 2a 86 3f 43 f1 82 3f 69 19 6b 3f
       0.935347 1.0481645 1.0229877 0.9183565
000080 1d 91 7d 3f 4f 8e 7c 3f 42 9f 83 3f cd cd 82 3f
       0.9904955 0.98654646 1.0282977 1.0219055
000090 59 df 7a 3f 3a 6f 7e 3f fa 05 7c 3f 0f cc 7c 3f
       0.9799705 0.9938847 0.9844662 0.9874887
0000a0 c5 aa 81 3f 26 fc 78 3f d2 1f 72 3f 1c 4d 7f 3f
       1.013024 0.9725975 0.94579804 0.99727035
0000b0 c6 f3 75 3f c1 d6 77 3f 72 27 7a 3f 15 a6 85 3f
       0.96075094 0.96812063 0.9771644 1.0441309
0000c0 6c 17 76 3f e7 d3 7b 3f 6b 40 81 3f 30 1e 7b 3f
       0.9612949 0.9837021 1.0097784 0.9809294
0000d0 45 7d 70 3f a5 a8 78 3f 24 e8 85 3f 36 2e 82 3f
       0.93941146 0.9713233 1.0461469 1.0170352
0000e0 dd 22 75 3f 74 c7 79 3f 2c 30 81 3f 5c 72 83 3f
       0.9575632 0.97569966 1.0092826 1.0269275
0000f0 80 9e 7d 3f ce 11 81 3f 4d fc 74 3f ae 57 72 3f
       0.99069977 1.0083559 0.9569748 0.9466504

model.1.bias f4 [64]
000000 d0 19 5d bc 7e 3b 08 bd a3 c4 bf bc ca 91 00 3d
       -0.013494924 -0.03325986 -0.023409193 0.031389035
000010 67 1e 86 bd 7d 71 6e 3d 14 8c f5 bc f8 e1 36 bd
       -0.065487675 0.0582137 -0.029974021 -0.044649094
000020 d9 17 b7 bb 04 8a 5f 3c fc 33 cb bb dc 77 1b bd
       -0.0055875597 0.013643745 -0.0062012654 -0.037956104
000030 b9 65 55 bd 75 d3 76 bc 2e ec 3b bd 6d bf 53 3d
       -0.052098963 -0.015065064 -0.045879535 0.05169623
000040 ec 91 46 bc 02 28 22 3d 26 f1 20 bd 78 fb 6f bd
       -0.012119751 0.039588936 -0.039292477 -0.05858943
000050 6c 30 08 3e ba fe 9a bd 50 50 f0 bc ff b4 88 3c
       0.13299721 -0.075681165 -0.029335171 0.016687868
000060 22 7e b9 bc 54 11 23 bd 39 4a e3 3c 4f c8 f1 bc
       -0.022643153 -0.039811447 0.027745353 -0.02951446
000070 ae 24 bd bb 8d 60 c1 bb c7 7c 84 bb 73 f8 ab bc
       -0.005772195 -0.0059014023 -0.004043195 -0.020992493
000080 e4 2f 61 bd 74 ad 76 bc 64 8a bc 3a 7d e1 78 3d
       -0.054977313 -0.015056003 0.0014384505 0.060761917
000090 17 d5 6c bc e6 3c eb bc d9 84 9e bb e4 7b a1 3c
       -0.014455101 -0.028715562 -0.004837614 0.019712396
0000a0 29 69 3b 3d 2c e3 c6 bd b8 7b 91 bd 18 b2 3e bb
       0.045754585 -0.09711298 -0.071036756 -0.0029097851
0000b0 a8 c5 60 bd bc 3e c9 3c 41 19 ce bc ac 47 52 3d
       -0.054876 0.024566047 -0.025158526 0.051337883
0000c0 c7 a7 e9 3c ce 97 3d 3d e6 48 e2 bc 57 dc 25 bd
       0.028522385 0.04628735 -0.027622651 -0.040493336
0000d0 1d 6f ca bc 04 72 46 bd 82 0a 82 3c 85 d0 85 3c
       -0.024711186 -0.048448578 0.015874151 0.016334781
0000e0 fb 4e 77 bd 45 c5 d2 3b 60 77 b3 3c 43 5d 84 bd
       -0.060378056 0.0064322078 0.021907508 -0.06463101
0000f0 cd c0 04 bd d7 61 3d 3d 89 8a 86 3a f5 c9 44 bd
       -0.03241043 0.046235885 0.0010264675 -0.048044164

model.1.running_mean f4 [64]
000000 70 6b 8a bc 3f 7b 47 3b 56 51 94 3c 3c 5b 18 3c
       -0.016896933 0.003043845 0.01810519 0.009299096
000010 62 f5 7c 3b d6 9a 3d bc dc 89 80 bb db 4e da bb
       0.0038598408 -0.01157256 -0.003922684 -0.0066622323
000020 9d 24 bf bb be 4d 0f 3c e0 6c 3e bc a4 6c c5 3c
       -0.005833222 0.0087465625 -0.0116226375 0.024099655
000030 b8 b6 f5 bb a4 b9 22 3c b4 79 09 3c 13 95 b7 3c
       -0.0074985884 0.0099319555 0.008390833 0.022409951
000040 77 d9 c0 3b 3f be 00 bc 0d 07 ce b9 ee fb c8 3a
       0.005885299 -0.007857858 -0.00039296635 0.001533387
000050 36 9a 72 bc 16 f7 a7 bb 6f 46 41 3c e1 28 c6 bb
       -0.014807275 -0.0051258905 0.011796578 -0.0060473536
000060 d8 23 3c 3c a5 79 a0 b9 ff 7d b2 bb 56 92 a5 bc
       0.011483155 -0.0003060821 -0.005447149 -0.02021138
000070 56 ae b3 bb 5c 96 b7 bc 16 39 5b 3c c7 c7 93 3b
       -0.005483429 -0.022410564 0.01338031 0.0045098993
000080 b1 3e c5 3b c2 c4 d8 3a 2d 53 99 bc ff ef d9 3b
       0.0060194363 0.0016538131 -0.01871642 0.006650924
000090 b4 58 01 3c 2d bb 1e bc 9e cf eb 3b 4d f7 05 3c
       0.007894684 -0.009688181 0.0071963808 0.008176637
0000a0 8c 3b 22 3c 38 55 29 bc 79 eb 28 bc 97 c3 ae 3a
       0.009901892 -0.010335259 -0.010310047 0.0013333437
0000b0 7b b3 2c bc 33 77 a7 bb 40 1e f0 bb ed 8b 15 bc
       -0.010540838 -0.005110645 -0.007327825 -0.009127599
0000c0 ca f3 34 bc 59 41 4a bc ae 70 e4 ba aa 51 2b bc
       -0.011044452 -0.012344682 -0.0017428601 -0.010456482
0000d0 97 ea a1 3c d3 ab 86 3b 0f 18 e5 ba a0 70 91 bc
       0.019765181 0.0041098385 -0.0017478483 -0.0177539
0000e0 ee dd f7 bb 7a 8a b2 bc 34 2a 5e bc 65 e6 8f 3c
       -0.007564298 -0.021794546 -0.013559867 0.017565915
0000f0 56 12 27 3c b8 24 8c 39 4f 9b 20 bc 71 b4 12 3b
       0.010197243 0.00026730238 -0.009802653 0.0022385383

model.1.running_var f4 [64]
000000 85 f6 0a 3f 78 16 9e 3e a9 34 b3 3e 60 76 6f 3e
       0.5428241 0.30876517 0.35001114 0.23385
000010 9e 0e 8b 3e ca ae 0d 3e f4 9f 9c 3e f3 84 09 3f
       0.2715959 0.13836208 0.30590785 0.5371849
000020 8d ca 27 3f d4 e7 af 3e a3 79 f4 3e f3 ef c8 3e
       0.6554344 0.34356558 0.4774905 0.39245567
000030 b0 4c aa 3e ce ba df 3d de 3c 76 3e f8 78 0e 3e
       0.33261633 0.10924302 0.24046656 0.13913333
000040 20 b2 16 3e 3e 64 92 3e 43 3f 61 3f 77 5a 6c 3e
       0.14716387 0.28592104 0.87987155 0.23081385
000050 13 fd 8b 3e df c4 2b 3e 6b ab d7 3e 47 51 a7 3d
       0.27341518 0.16774319 0.4212297 0.08169799
000060 33 be f7 3e 7d 13 d7 3e 4c 37 21 3e 2b c2 ae 3e
       0.48387298 0.42007056 0.1574375 0.34132513
000070 48 ab d4 3e 09 4d a3 3e a1 45 c2 3d 53 ef ea 3e
       0.41536927 0.3189471 0.09485937 0.45885715
000080 58 d9 6b 3e 3b 19 39 3e e9 88 84 3e d0 ff 81 3e
       0.23032129 0.18076031 0.25885704 0.25390482
000090 ea e7 29 3f 62 34 85 3e 87 97 2d 3e 82 d8 24 3e
       0.663695 0.26016527 0.16952334 0.16098216
0000a0 b3 73 31 3e 97 33 6b 3e 5b b1 28 3e 5c b6 56 3f
       0.17329292 0.22968899 0.16473906 0.8387201
0000b0 05 d5 fe 3e 07 bc d8 3e 41 fb f1 3e 0b 54 16 3f
       0.49771896 0.42330953 0.47262004 0.5872199
0000c0 32 dc 9e 3e b3 c7 18 3f d8 d6 3e 3e b5 1b 6a 3e
       0.3102737 0.59679717 0.18636644 0.22862132
0000d0 9a 71 a1 3e 34 6e 42 3f 04 9f 20 3e 52 7e 18 3e
       0.31531984 0.75949407 0.1568566 0.14891937
0000e0 af 52 c1 3e 77 d7 89 3e 1d 98 72 3e c3 2d 08 3e
       0.37758395 0.269222 0.23690839 0.13298707
0000f0 da 28 d9 3e 7e b4 82 3f 0a da 5a 3e 74 38 e2 3e
       0.4241398 1.0211332 0.21372238 0.44183695

model.4.weight f4 [32, 64]
000000 ea 15 ee bd b4 6e ea bc f1 d1 69 bd 42 4b 9e bd
       -0.116252735 -0.02861724 -0.05708498 -0.07729198
000010 59 aa d7 3d 08 14 c9 bb fe a5 a8 3d f8 6d 02 3d
       0.10530538 -0.006136421 0.082347855 0.031843156
000020 45 25 98 3d fd fc fa 3d 34 39 c0 bd 57 db a2 bd
       0.074289836 0.12255285 -0.09385911 -0.07951992
000030 dd bf 6e bd 8e 56 3a 3c 8b a9 c8 bd cd 94 1b 3e
       -0.058288444 0.011373175 -0.09797963 0.15193482
000040 05 3b d7 3d f1 df 16 3d 2b f7 13 3e b5 49 85 bd
       0.10509304 0.03683466 0.14449756 -0.06508199
000050 6f c6 1a 3c 6e 3a 0f 3d 21 ea ee 3c 3a 02 4e bd
       0.009446724 0.034967832 0.029164376 -0.050295092
000060 eb 2e 1f be 14 2f 05 3d c4 4d a1 bc 5d ae 55 3c
       -0.15545242 0.0325156 -0.019690402 0.01304206
000070 35 5a d1 3d 1f b0 88 bd 02 d5 27 3d 17 57 95 3d
       0.10222284 -0.066742174 0.040974624 0.07292002
000080 18 64 8b bc 1c 6e d8 bb 78 1f 81 3d 6f 4b d1 bc
       -0.017015502 -0.006604923 0.0630483 -0.025548665
000090 ca 89 f5 bd ce 1c be bd 86 f9 b7 bc a4 2f dd bc
       -0.11989172 -0.09282838 -0.02245785 -0.027000256
0000a0 dd 10 aa bd ea 07 11 bd fd c7 0a bd 40 b3 88 bc
       -0.08303998 -0.035407938 -0.03388213 -0.016687036
0000b0 2f c0 c4 bd 32 dc 51 bd 4e 18 fe bc 1b 88 be b9
       -0.096069686 -0.051235385 -0.031017449 -0.0003634103
0000c0 63 30 80 bd 4d 6e 4f 3d 4e 7e 10 be 9c 64 26 be
       -0.06259229 0.0506423 -0.14110681 -0.16249317
0000d0 54 74 cd bd c7 d8 75 3b 96 e5 c5 3b 4d d2 ac bd
       -0.100319535 0.0037513243 0.0060393317 -0.08438549
0000e0 d4 01 bd 3d 1a e2 e2 3d 4d 8d d4 3d 8a 6d 21 bc
       0.09228864 0.11078282 0.103785135 -0.009852776
0000f0 88 8d e2 bd e5 c0 69 bc 73 e7 89 3d f4 ff 25 bd
       -0.11062151 -0.014267181 0.067335986 -0.0405273
000100 53 84 ae bc 71 8c 5f bd e9 66 b5 bd ff b3 2c 3d
       -0.021303331 -0.054577295 -0.08857519 0.042163845
000110 ad e7 43 bd 2f 33 cd 3d d1 94 3f 3d a4 4d 48 bb
       -0.047828365 0.10019528 0.04677278 -0.0030563856
000120 fd cb f4 bc 97 ac b4 bd 56 f0 24 3c ce 37 b7 3d
       -0.029882425 -0.088219814 0.010067066 0.08946191
000130 5d 2d 97 3d 83 36 cb bd 84 ea 01 3e 54 7d 93 bc
       0.07381699 -0.09922507 0.12687117 -0.018004097
000140 f9 06 d4 bd 84 20 44 3d 5d a4 19 3d ef 84 0b 3e
       -0.103528924 0.04788257 0.037510265 0.13624929
000150 4f bb 70 bc ac 3a be 3c 37 cc 4c 3d 47 b3 9d 3d
       -0.014693095 0.023221336 0.049999442 0.0770021
000160 6d 42 7e bd 96 55 15 bd 42 cd 1f be 76 54 bc bc
       -0.062075067 -0.036458574 -0.15605643 -0.022989493
000170 e0 e5 89 3d 04 b7 a2 bc f0 60 4c bd f0 af 2a 3d
       0.06733298 -0.01986266 -0.049897134 0.041671693
000180 97 02 4c 3c de 00 d2 bd cc b7 0b 3e 6b 3a a2 bd
       0.012451789 -0.10254072 0.13644332 -0.079212986
000190 eb ed 54 3d ce 19 95 bb 5d 87 9a bc 1f 94 d6 bd
       0.05198471 -0.0045501953 -0.018863374 -0.104774706
0001a0 73 55 ec 3d bd 9f 87 bc 95 2e e6 bb f8 67 7e bc
       0.11539736 -0.016555661 -0.007024596 -0.015527718
0001b0 3a 11 92 bd 91 bd 83 bd 0b ae 13 bd 07 9c 00 be
       -0.07132192 -0.06432641 -0.036054652 -0.1255952
0001c0 9d bf 12 be 59 02 b9 bd 95 6d 60 3d 22 8d 7a ba
       -0.14330907 -0.09033651 0.054792006 -0.00095577736
0001d0 03 e7 0a bd 82 0b 84 3d b0 35 57 bd d4 ea dc 3d
       -0.033911716 0.064475074 -0.052541435 0.107869774
0001e0 5e e5 c2 bd 4d 06 1f bd ee 21 eb 3c 9f ae ec bc
       -0.095164046 -0.03882437 0.028702702 -0.02889186
0001f0 6f 17 a1 bd 6f 12 d5 bd 59 c5 86 bd 2d 8a 3d 3c
       -0.07865798 -0.104039066 -0.0658061 0.011568588
000200 74 e4 29 3d 03 32 85 bc 4e 1e b5 3d 7f 03 ac bd
       0.041477636 -0.016259199 0.08843671 -0.08399104
000210 6c 33 11 3c 9c 4e e1 bd 39 b6 00 3d e2 e5 88 bd
       0.008862358 -0.11001322 0.03142378 -0.06684472
000220 c5 d1 cf 3b 51 d3 5c bd 43 4a d0 bb 22 6e ca 3d
       0.006342145 -0.053912465 -0.006356509 0.098842874
000230 31 24 d0 3c d4 65 c7 3c 1c 48 66 3d 79 f8 9d ba
       0.025407882 0.024340548 0.056221113 -0.00120522
000240 1e c8 18 be 9f 96 16 3e 72 cc ee 3c 2b 8f a7 3d
       -0.14920089 0.14705895 0.029150221 0.08181604
000250 31 72 0a bd f6 36 f5 bc 6d 16 f6 3a 6c f0 86 3d
       -0.033800308 -0.029933434 0.0018774994 0.065888256
000260 9e fa de 3b 26 20 53 bd a4 d5 00 3e ba 45 73 bd
       0.0068047782 -0.05154433 0.12581497 -0.05939267
000270 a4 f0 8d bd 9e 86 a0 bd 6d d4 3f 3e d1 0b b5 3c
       -0.06930664 -0.07838176 0.18733378 0.022100361
000280 2c 84 0d ba 7d eb 5b bd eb b7 c8 bd c8 72 8c bd
       -0.0005398418 -0.053691376 -0.098007046 -0.0685783
000290 ee 45 8f bd 88 23 a6 3d 5f a0 2e 3d 5d 7b 21 3e
       -0.0699576 0.08112246 0.04263341 0.15769716
0002a0 a1 a8 f0 bd 20 40 3e 3d e2 cd df bc a2 f6 cb 3d
       -0.117509134 0.046447873 -0.027319852 0.09959151
0002b0 57 87 b3 3d ae 9b bb 3d 62 a5 bb 3d f4 33 b1 3d
       0.087660484 0.09160553 0.09162404 0.086524874
0002c0 72 f1 4e 3c aa 10 76 3d f1 39 cd bd 3c cf dd 3a
       0.012630807 0.060074486 -0.10020817 0.0016922723
0002d0 ad c0 f2 bc 50 7e 92 bc dc 01 04 bd c2 da 91 bd
       -0.02963289 -0.017882496 -0.032228336 -0.07121803
0002e0 c0 68 3a bd e3 8b 10 bd 02 db b7 bc db 33 df bd
       -0.045510054 -0.035289656 -0.022443298 -0.108985625
0002f0 4c 93 ca 3c 53 f7 b9 3d 0a df fa 3d 31 71 6b 3d
       0.02472844 0.090803765 0.122495726 0.057480995
000300 3e a6 1a bd 96 0e 32 be 5d f8 6b 3d 6e 07 bc 3d
       -0.037756197 -0.17388377 0.057609905 0.091811046
000310 e1 72 b7 bd 58 9b 6d 3d cf 42 c8 3d 52 dc 85 bc
       -0.08957458 0.058009475 0.09778368 -0.016340408
000320 73 0e c9 bd 74 d4 7e 3d cc a1 2e 3d bd 3b e5 3d
       -0.09817209 0.06221433 0.04263477 0.11193035
000330 f0 2e b0 bd e1 e6 4f 3d 1b ad 44 bd 66 26 c9 3d
       -0.086027026 0.050757293 -0.04801665 0.09821777
000340 13 ef e5 bd 47 f2 1b 3d d6 51 77 bd 68 02 14 3d
       -0.112272404 0.03807285 -0.06038078 0.036135107
000350 13 53 a7 bd 21 6d e8 3c 7a c1 91 bd 6e 35 01 be
       -0.08170142 0.02837235 -0.07116981 -0.12618038
000360 9a eb b8 bc ab 63 85 3d 76 86 de bd df 55 38 bc
       -0.022573281 0.06513151 -0.1086549 -0.011250942
000370 c9 e7 83 bd 77 fb 2c 3e 60 71 8d 3d 26 eb 99 3c
       -0.06440694 0.16892801 0.0690639 0.018788885
000380 4a ac b0 bd b9 23 e5 bd 5b 9d 7e bb af a2 75 bd
       -0.086266115 -0.11188454 -0.0038851115 -0.0599696
000390 78 0d ff 3d 81 84 e1 bd 7a 53 c9 3c 7b f9 e6 3d
       0.12453741 -0.11011601 0.024575938 0.112780534
0003a0 cb 81 ae 3d 47 78 64 3d 71 3d 9b bd 4b ef 8d 3d
       0.0852085 0.055778768 -0.075800784 0.06930407
0003b0 09 56 11 bd 8f d0 f9 bd b6 3d ee 3d 27 1b b3 bd
       -0.03548244 -0.121979825 0.11632864 -0.08745413
0003c0 55 dc 16 bc 49 b9 c4 3d 26 e7 73 bd 5f 7b 5e bd
       -0.009207805 0.09605653 -0.059546612 -0.054316875
0003d0 d3 dc 1f 3d 6f 23 55 3d 85 a1 65 3c 6f 00 78 bd
       0.039028954 0.052035745 0.01401556 -0.06054729
0003e0 c6 21 3b bd ff c0 bd bd 1b 0a 68 bd a0 4a 20 be
       -0.045686506 -0.09265327 -0.056650262 -0.15653467
0003f0 0a cd 9e 3d 65 f9 a5 bc 7c cc 5f bd ed 55 b0 3d
       0.07753952 -0.020260522 -0.05463837 0.08610139

model.4.bias f4 [32]
000000 ae ae e2 b4 32 1a e6 35 52 77 20 b5 b8 f2 32 35
       -4.2222877e-07 1.7143959e-06 -5.977828e-07 6.666337e-07
000010 29 39 48 35 7a ca a0 34 3a 22 94 b5 dd da 10 b5
       7.4588985e-07 2.9949643e-07 -1.103682e-06 -5.396267e-07
000020 41 ff d8 34 e1 70 97 35 a3 de 0b 34 b0 63 9d 35
       4.0418857e-07 1.1283229e-06 1.3026379e-07 1.1726424e-06
000030 2b f4 9a b5 a4 51 b0 35 64 8d 5d 35 c1 56 d2 35
       -1.1544956e-06 1.3136782e-06 8.2534666e-07 1.5671468e-06
000040 20 45 8e b5 1a 0d 01 35 06 c9 a9 34 21 33 50 b5
       -1.0599942e-06 4.807531e-07 3.1624967e-07 -7.756044e-07
000050 cc c9 f5 34 12 3d 53 b5 1a 8b a5 b6 0a 22 3b b5
       4.5781633e-07 -7.8692494e-07 -4.9335767e-06 -6.971246e-07
000060 18 1f 8c 35 77 33 bd b5 c2 0e 8c 35 dc 5d 9f 34
       1.0439862e-06 -1.4096576e-06 1.0435108e-06 2.968435e-07
000070 3b 58 01 36 1d d6 40 b3 6f cb 53 35 40 93 31 b5
       1.9273855e-06 -4.489822e-08 7.889966e-07 -6.6151915e-07

model.5.weight f4 [32]
000000 44 20 78 3f 59 6c 87 3f 9e 10 79 3f e5 2e 69 3f
       0.96924233 1.057994 0.9729098 0.9108718
000010 15 08 80 3f bf 5d 6c 3f 10 57 85 3f b4 39 83 3f
       1.0002466 0.92330545 1.0417194 1.0251985
000020 44 44 80 3f f7 fc 7f 3f 2e 72 7a 3f 5c f9 70 3f
       1.0020833 0.9999537 0.97830474 0.9413049
000030 97 fb 6d 3f d0 e2 80 3f 68 0f 74 3f 04 b0 68 3f
       0.9296202 1.0069218 0.9533601 0.9089358
000040 fc 4f 82 3f d4 7f 6c 3f 1b eb 84 3f cb bf 87 3f
       1.0180659 0.9238255 1.0384248 1.0605406
000050 02 0e 8a 3f 86 54 79 3f 34 9c 70 3f a5 5f 82 3f
       1.0785525 0.973946 0.9398835 1.0185438
000060 e4 0c 7c 3f fd fa 83 3f f4 88 71 3f 1e 77 81 3f
       0.9845717 1.031097 0.943496 1.0114477
000070 74 d5 7d 3f f3 d6 6e 3f d8 6f 82 3f a0 67 75 3f
       0.9915383 0.93296736 1.0190382 0.95861244

model.5.bias f4 [32]
000000 e0 5b d7 3a d4 c1 9a 3d b4 7f 7d bd e6 9e 62 bc
       0.0016430579 0.07556501 -0.061889365 -0.01383183
000010 68 3c 80 3c 13 a9 5c bd 9b 5e 00 3d 11 cf e9 3c
       0.015653804 -0.05387218 0.031340223 0.02854112
000020 09 9b f5 3b 37 df 90 3b f6 bc 2a 3c 4c 2c b4 bd
       0.0074952883 0.0044211405 0.010421028 -0.087975115
000030 6a a3 f9 bc 7b 48 c5 bc 50 ac 36 bd 66 c2 0e bd
       -0.03047343 -0.024082413 -0.044597924 -0.03485336
000040 6a 05 39 3d 39 60 77 bd b7 e2 e2 3d 9a 2e 8f 3c
       0.04517118 -0.0603945 0.11078399 0.017478276
000050 7e 1c cf bc eb 3c 8d bd f0 ef 3b bd c9 10 54 3d
       -0.02528214 -0.06896385 -0.04588312 0.05177382
000060 d7 a1 66 bc ca f1 61 bb 72 9b de 3c e8 56 94 bb
       -0.014076672 -0.0034476393 0.027173731 -0.0045269616
000070 0d ce 40 3c 6d 27 69 bd d7 44 b8 3c 6a f8 33 bc
       0.011767876 -0.056922365 0.022493763 -0.0109845195

model.5.running_mean f4 [32]
000000 28 d5 82 be f6 38 b6 be be 91 48 3e 04 d3 54 be
       -0.2555325 -0.35590333 0.19586846 -0.20783621
000010 8e dd ba 3d 66 02 2b 3e a4 7c a7 3d ae 40 a7 be
       0.091242895 0.16700134 0.0817807 -0.32666534
000020 69 b7 71 3d 15 eb d4 3b e3 0c 63 bd b9 ab ab be
       0.059012804 0.0064977505 -0.05543221 -0.3352945
000030 a5 d8 86 3d 3b 8f 15 3e f4 ca 6f 3e 95 db b0 bd
       0.065842904 0.1460542 0.23417264 -0.08635632
000040 d6 e0 08 be f9 c4 55 be 7b 54 70 be 6f 4f e1 3e
       -0.13367018 -0.2087592 -0.23469727 0.44005916
000050 98 4c 03 be df 53 02 bf 4b 60 df 3d a9 40 c5 be
       -0.12822187 -0.5090923 0.10907038 -0.38525894
000060 85 57 c2 bc 23 39 7c 3e d8 ab 06 3e 4d 90 8b be
       -0.023723373 0.24631171 0.1315149 -0.2725853
000070 7c 77 d1 3e 31 d0 d0 bd 30 e6 87 3e 5e dc 18 be
       0.40911472 -0.10195959 0.26542807 -0.14927813

model.5.running_var f4 [32]
000000 88 7e fc 3e f5 d5 ec 3e 08 34 94 3e 66 48 c9 3e
       0.49315286 0.46256986 0.28945947 0.39313048
000010 38 6b b6 3e e8 97 9b 3e 99 00 f2 3e e7 7d b8 3e
       0.35628676 0.30389333 0.4726608 0.36033556
000020 6f 40 9a 3e 00 68 92 3e c6 6c be 3e 6b 29 ca 3e
       0.30127284 0.2859497 0.37192363 0.39484724
000030 a9 65 23 3e b6 39 9d 3e 30 1f 56 3e 43 f0 9c 3e
       0.15956749 0.30708092 0.20910335 0.30652055
000040 2d b8 b7 3e c2 87 6d 3e ec 07 7d 3e 97 6a 1c 3f
       0.35882702 0.23196319 0.24710053 0.61100143
000050 77 44 d5 3e e1 b2 a4 3e b7 f8 2d 3e c7 7a b4 3e
       0.41653797 0.32167724 0.16989408 0.35249922
000060 1b c7 bd 3e 17 ad ed 3e 5a 26 b1 3e 37 05 f0 3e
       0.37065968 0.4642112 0.34599572 0.4687898
000070 bf fb 0a 3f 3c 9f b3 3e d0 e4 a2 3e 74 39 fc 3e
       0.54290384 0.35082424 0.31815195 0.49262583

model.8.weight f4 [16, 32]
000000 1a f4 30 b9 be 65 e9 bd 36 56 b1 3d be e2 3c 3d
       -0.00016875603 -0.11396359 0.086590216 0.046114676
000010 47 36 07 3e d1 3c 72 3d 43 47 33 3d 66 dc 00 3e
       0.13204299 0.05914003 0.043769132 0.12584075
000020 80 cc fc bd e0 13 cf 3d 82 50 b9 3d 5c a1 c7 bd
       -0.12343693 0.10111213 0.09048559 -0.09747574
000030 8f 78 cd 39 34 f1 2f be ba 7f 55 be df db 25 bd
       0.0003919047 -0.17181855 -0.20849505 -0.04049289
000040 e3 a0 9f 3d b9 42 27 bd d2 1a bd 3d 29 a3 4a be
       0.077943586 -0.040835116 0.09233631 -0.19788803
000050 fc 92 1e be a7 06 52 3d 66 b1 48 be eb 06 74 3d
       -0.15485758 0.051275875 -0.19598922 0.05957691
000060 3b 5d 30 3d 3b d3 8a 3c bc 7d 83 3d b7 af 68 bd
       0.04305766 0.016946426 0.06420466 -0.0568082
000070 0e f9 49 3d b0 b2 a3 bc ed d3 f4 bc 61 03 15 3e
       0.049309783 -0.019982666 -0.02988621 0.1455207
000080 45 db 20 bd e5 6e 43 be f7 91 00 be 74 81 04 3d
       -0.03927161 -0.19085272 -0.12555681 0.03235002
000090 3c 88 6b 3d be 25 1f 3e fc 29 01 3e e3 76 f6 bd
       0.05750297 0.15541741 0.12613672 -0.120343946
0000a0 b0 4d 86 3d eb de 5d 3e 17 53 08 3e e0 0d 50 3d
       0.065577865 0.21667068 0.13312946 0.050794482
0000b0 e5 19 dd bd 31 9f c7 bd d2 ef bc 3d cb 58 fb bd
       -0.107959546 -0.0974716 0.092254296 -0.12272795
0000c0 1c 02 0b 3d 28 6a 8b 3c 11 0b f6 3d 7a 77 7d bd
       0.03393756 0.017018393 0.120138295 -0.06188152
0000d0 bd 36 f9 bd 44 a4 90 bc be 11 fe 3d f3 87 22 bc
       -0.121686436 -0.017656453 0.12405728 -0.009920108
0000e0 cf 2b ba bc 23 1f 13 be 9f 82 d5 3d 8a 6a 00 3d
       -0.022725968 -0.14367346 0.104253046 0.031351604
0000f0 24 51 2f bc be 84 94 3d 2b f1 7c bd b3 1a 67 bc
       -0.010700498 0.07251881 -0.061753433 -0.014105487
000100 c7 94 55 bd f4 31 46 3d a1 95 e5 bd 58 21 80 3d
       -0.05214384 0.048387483 -0.1121018 0.0625636
000110 25 f9 3e be 28 dc 6d 3d 4f 60 ad 3d e9 f3 57 bc
       -0.18649729 0.058071285 0.08465635 -0.013180711
000120 2b 4d 43 bd d7 89 2b be cf 26 07 3d 83 c4 0b 3e
       -0.047681015 -0.167518 0.032995995 0.13649182
000130 1c 36 ea 3d e6 0e 16 3d 55 53 89 3d c0 7d 3d 3e
       0.11436102 0.036635302 0.067053474 0.18505001
000140 20 36 7f bd 4e 77 ce bd ad a0 3d be bc 4f 03 3e
       -0.062307477 -0.10081349 -0.18518324 0.12823385
000150 df 5f 0f 3e 86 33 5d 3e a7 b3 81 bd ce c1 16 bd
       0.14001416 0.21601686 -0.06333094 -0.03680592
000160 e2 cb dc bc b0 6b 1c 3d e0 72 40 3d 36 06 3a be
       -0.026952688 0.038188636 0.046984553 -0.18166432
000170 f2 7b c2 3d 42 3e 1b 3d e8 e3 e9 bd d2 e6 d1 3c
       0.09496297 0.03790117 -0.11420423 0.025622759
000180 72 a1 b5 bc 15 60 5f bd 45 ed a3 bd 6a 82 28 be
       -0.02217171 -0.05453499 -0.0800424 -0.16455999
000190 a8 d6 13 3d 52 31 d8 3d 4d 39 40 3d e1 e8 e7 bb
       0.036093384 0.10556282 0.046929646 -0.007077322
0001a0 56 10 03 3d c6 32 9a 3d 5a 59 a2 3a 83 98 0d be
       0.031998 0.075292155 0.0012386248 -0.1382771
0001b0 a6 f1 a0 bd d6 8a 8c bd da 09 17 3d 1c 32 a8 3d
       -0.07858591 -0.06862418 0.03687463 0.082126826
0001c0 0f 58 84 3d 48 df a4 3d 96 f3 24 3e 82 5a 0b be
       0.06462108 0.080504 0.16108546 -0.13608745
0001d0 a0 7d db bd 63 16 61 3d d2 c4 b6 3d e0 29 b6 3d
       -0.107173204 0.05495299 0.08924259 0.08894706
0001e0 5c ef 04 be 37 b7 c3 bb d3 95 d5 bd 8e f1 1f 3e
       -0.12981933 -0.0059727686 -0.10428967 0.1561949
0001f0 e4 02 78 3d bb ab db 3d db 5a 13 be f8 e8 9d 3c
       0.06054963 0.10726114 -0.14390127 0.019276127
000200 90 1d 8c 3d 05 a1 31 3e 40 a4 cc bd 36 01 e9 3d
       0.06841576 0.1734658 -0.09992266 0.11377184
000210 87 5f 47 bd fa 02 a0 bd 84 f3 d6 bd cb 79 58 bd
       -0.048675086 -0.07813068 -0.10495666 -0.052850526
000220 ad 0d 8f bc 34 3a e5 3c f5 ea b4 bd 89 31 42 bd
       -0.017462576 0.027981855 -0.08833877 -0.04741052
000230 1a f1 0d be 34 c9 18 3e 25 df 0d 3c 52 3a eb bd
       -0.13861504 0.14920503 0.008659159 -0.11485733
000240 b5 05 16 bd 4a 7a 34 bc 83 a5 af bc 69 80 14 3d
       -0.036626536 -0.011015484 -0.021441227 0.036255274
000250 97 46 2e 3e 5d ed 32 3c 67 f3 7e 3a ef 20 89 bd
       0.17019115 0.01092085 0.0009725601 -0.06695735
000260 dc f0 65 3d 77 de 54 3e bc 33 44 bd 3b 39 8f 3d
       0.056137905 0.20787989 -0.0479009 0.06993338
000270 86 70 b2 3d e1 52 81 bd 56 fd 83 bd 65 08 c0 bd
       0.087128684 -0.06314636 -0.06444804 -0.09376601
000280 41 7d 56 3d 9d fd d7 bb 6c 0f de bb 49 b5 e9 3c
       0.052365545 -0.0065915124 -0.006776741 0.028528826
000290 ba 0e e3 bd 2e b7 fa bd 20 13 36 be 51 8f e8 bd
       -0.11086793 -0.1224197 -0.17780733 -0.113554604
0002a0 1c c6 2c 3d 95 ce c7 bc 6e 12 b9 3d 1f 3a e2 bd
       0.04218112 -0.024390498 0.09036718 -0.11046242
0002b0 ea 53 7f 3c db aa 8f bd 08 9a b7 3c 8f a1 99 3d
       0.0155839715 -0.0701501 0.022412315 0.07501518
0002c0 86 4a 53 be 2c 1e d8 3d 31 6a cf bd 07 23 69 3e
       -0.20633897 0.1055263 -0.10127676 0.22767268
0002d0 87 39 27 3d 4c ec 14 3e 8f a4 14 3e b4 54 f0 bd
       0.040826347 0.14543265 0.14515899 -0.11734906
0002e0 f5 58 29 3c 7b 93 23 3e 8b 0a 15 be e2 21 5a 3d
       0.01033615 0.15974228 -0.14554803 0.05325497
0002f0 36 3b d6 bd 21 86 eb 3d a0 c6 09 be fc dd eb bd
       -0.10460512 0.115001924 -0.13454676 -0.115169495
000300 7c c5 d6 3d 95 a7 a3 bd 2f 69 04 3e 74 86 e6 3d
       0.10486886 -0.07990948 0.1293075 0.11256114
000310 2a d6 3d 3e b2 07 1b be d3 cb d9 ba f3 34 15 bd
       0.18538728 -0.15139654 -0.001661653 -0.03642745
000320 b8 08 0e 3c e8 1f 17 be e6 6f 86 3d 69 6a 3a 3d
       0.008669071 -0.14758265 0.06564312 0.045511637
000330 a8 aa 88 bd 85 9c 2d be 5f cc 84 3d e0 4b e7 bd
       -0.06673175 -0.16954239 0.06484293 -0.11293769
000340 60 6f 15 3e a0 28 c1 ba fc 33 95 3d 58 0b 0f bd
       0.14593267 -0.0014736839 0.07285306 -0.034922928
000350 66 5b 21 bd 29 d0 ec bd 2e 8c 17 be 49 09 d3 3d
       -0.039393805 -0.11563141 -0.14799568 0.103045054
000360 b9 c0 07 be 59 17 11 3d cd d8 8d bd 63 65 12 3e
       -0.13257112 0.035422657 -0.06926117 0.14296488
000370 9c 89 32 3e 72 16 bb bd cb ea 2d 3e 37 dc c0 bc
       0.17435306 -0.091351405 0.16984098 -0.023542507
000380 2a e7 a7 bd 70 eb da bc 69 3c 32 3e 97 23 b1 3d
       -0.08198388 -0.026723593 0.17405857 0.08649366
000390 dc a2 a8 bd 41 60 2f 3e 92 b8 68 3e 90 79 63 3e
       -0.08234188 0.17126562 0.22726658 0.22214341
0003a0 fc c2 2b 3e de 35 5f bd e0 47 26 3e 61 32 0d 3e
       0.167736 -0.05449473 0.16238356 0.1378875
0003b0 a2 b9 8d bd 7c 19 e4 bd 96 3f e9 3d db 9a be 3d
       -0.06920172 -0.11137673 0.11389081 0.0930688
0003c0 5e 98 d4 3d dc 6a d4 3d 94 c4 1a bd 04 79 43 bd
       0.10380624 0.10371944 -0.037785128 -0.04772283
0003d0 cf e4 0e be a5 50 1f bb 58 1c fa 3c f1 d0 18 bd
       -0.13954471 -0.0024309542 0.030531093 -0.037308637
0003e0 0d 41 a7 bd fe e9 14 be 5c f2 9a bd 19 ab 45 3e
       -0.08166704 -0.14542386 -0.07565758 0.1930355
0003f0 60 8c a1 bd e3 47 04 3e f8 71 7b 3d 9a 5b 81 bc
       -0.078881025 0.12918048 0.061387986 -0.01579075

model.8.bias f4 [16]
000000 d7 15 51 b7 12 f0 93 35 9e 8a 16 b5 6e 85 7c 34
       -1.2462456e-05 1.1022223e-06 -5.608107e-07 2.351787e-07
000010 54 e8 45 34 fe b2 78 35 0a 5a f0 36 52 a8 a5 b5
       1.8431575e-07 9.264767e-07 7.1630393e-06 -1.2342446e-06
000020 a4 c7 5b b5 43 25 9b 36 27 8e 16 b4 5f 15 af 35
       -8.1874373e-07 4.623698e-06 -1.4021553e-07 1.3044736e-06
000030 7e dd 8a b5 7a ed 4b b6 6a 55 31 b4 e8 c1 48 b5
       -1.0346264e-06 -3.0387587e-06 -1.6515483e-07 -7.4787977e-07

model.9.weight f4 [16]
000000 56 a4 91 3f 81 ae 8b 3f 50 69 81 3f 91 6e 8e 3f
       1.1378276 1.0912629 1.0110264 1.1127492
000010 ae e0 83 3f 19 6d 84 3f 0e d2 93 3f c7 7f 91 3f
       1.0302942 1.0345794 1.1548479 1.136712
000020 3d d1 7c 3f f1 bc 80 3f 9b 4d 83 3f d2 7b 8a 3f
       0.9875677 1.005766 1.0258058 1.0819037
000030 6f d7 8e 3f cc 65 8c 3f 83 3b 91 3f 8a 1e 95 3f
       1.1159495 1.0968566 1.1346287 1.1649945

model.9.bias f4 [16]
000000 05 f1 3a 3e 30 fe 03 3e 27 2d d8 ba 69 78 1d 3e
       0.18256004 0.12889934 -0.0016492949 0.15377964
000010 d0 7a 01 bc 68 49 a3 3a 7e f1 3a 3e 05 12 04 3e
       -0.007902816 0.001245779 0.18256184 0.12897499
000020 fa 01 80 bb 87 d1 ef bc db 63 19 bd ef 56 e5 3d
       -0.0039064856 -0.029274715 -0.037448745 0.11198222
000030 68 35 2f 3e 33 b5 00 3e 0c 6f 2c 3e 70 6f 47 3e
       0.17110217 0.12569122 0.16839236 0.19476104

model.9.running_mean f4 [16]
000000 ab 16 3e bd 96 76 16 3d 33 28 84 3d 7c e3 2d 3d
       -0.046408337 0.036734186 0.0645298 0.042453274
000010 0d a5 c7 3c 33 fd 18 be 9f a1 9b 3d 9c 63 c4 3e
       0.024370695 -0.14940338 0.07599186 0.38357246
000020 6f e8 cf bd f3 51 8f bd 2d a9 89 be b0 e5 cf bc
       -0.10151755 -0.069980524 -0.26886883 -0.025378078
000030 40 63 7d 3c 9f aa 05 3e 07 64 23 be 36 81 33 3e
       0.015465558 0.13053368 -0.15956126 0.17529759

model.9.running_var f4 [16]
000000 bf d4 00 3f 0e 6c 08 3f 9b 38 ee 3e 56 a8 c4 3e
       0.50324625 0.5328988 0.46527562 0.3840968
000010 0d 32 ef 3e 17 73 0d 3f 90 d9 de 3e 9c 92 10 3f
       0.46717873 0.5525374 0.43525362 0.5647371
000020 c5 70 df 3e c4 fa 05 3f 33 46 0a 3f 81 ba d6 3e
       0.43640724 0.5233576 0.54013366 0.41939166
000030 f8 d2 05 3f a6 da f1 3e c1 d5 0d 3f 75 73 c2 3e
       0.5227504 0.47237128 0.5540429 0.37978712

model.12.weight f4 [1, 16]
000000 5c 74 af be 3e ce e6 bd 05 96 0f 3e ea 55 a1 be
       -0.34268463 -0.11269806 0.14022072 -0.3151086
000010 a8 78 47 3e 89 6d 77 3e 8b b1 9b be 4c d8 03 be
       0.1947962 0.24162878 -0.30408892 -0.1287548
000020 d2 b4 92 3d a8 4f 5f 3e c9 33 68 3e 0a aa 96 be
       0.07163395 0.2180773 0.22676004 -0.29426605
000030 39 4a a7 be 43 a7 a4 be 0a 1f 7a be 84 eb 4e be
       -0.32673815 -0.3215886 -0.24425903 -0.2020703
